checkpoints/Exchange_336_96_Linear_custom_ftM_sl336_ll48_pl96_dm512_nh8_el2_dl1_df2048_fc1_ebtimeF_dtTrue_Exp_0/checkpoint.pth (torch, 130986 bytes, 2 tensors)

Linear.weight f4 [96, 336]
000000 c7 d3 11 bd a0 cf 94 3b 82 45 eb 3c 95 04 d7 3c
       -0.035602357 0.0045413524 0.028719667 0.026247302
000010 b9 a2 49 3c cc f7 f3 bc 6a a0 2d bd 35 bb 64 3d
       0.0123068625 -0.029781245 -0.04238931 0.055842597
000020 5d 2d 8b bc 9d 60 1e bd c9 75 18 3d 06 35 49 bd
       -0.016989404 -0.038666356 0.037221704 -0.049122833
000030 74 cf 14 3d 42 07 21 bd d0 fe e2 3c 17 35 63 bc
       0.036330655 -0.039313562 0.027709395 -0.013867638
000040 63 e7 f7 3a 23 da b9 bc 31 99 e3 3c 2f 8b b0 3c
       0.0018913563 -0.022687024 0.027783008 0.021550743
000050 d8 c6 e8 3c b2 28 d1 bc ca 6b 49 3d 0f 89 12 bb
       0.028415129 -0.0255321 0.04917506 -0.0022359525
000060 9b d7 62 bc 03 f9 42 bd 60 03 21 3d 82 97 33 bd
       -0.01384535 -0.047600757 0.03930986 -0.04384566
000070 7e 16 fe bc a7 90 7e bc d8 9a aa 3c 05 9b aa 3c
       -0.031016584 -0.0155374175 0.020825788 0.020825872
000080 06 f8 0f 3d a0 27 2e 3b 20 30 e2 3c 88 19 1d 3d
       0.035148643 0.0026573911 0.027610838 0.038354427
000090 8a 60 3d bd 6c 67 1c bd a5 d2 37 bd cc 7e 06 bd
       -0.046234645 -0.03818457 -0.04487862 -0.032835767
0000a0 b5 bc ec 3c b0 13 47 3d e3 ca 9b 3c 4a cb 2b bd
       0.028898576 0.04860276 0.019017642 -0.04194192
0000b0 23 90 c9 3c 17 c2 e1 3c 58 0f 37 3d 36 0d 51 bd
       0.024604863 0.02755837 0.044692367 -0.05103799
0000c0 15 4b 24 bc 44 2f f8 bc 87 3b 31 3d 79 11 d7 3c
       -0.010027667 -0.030295976 0.04326966 0.026253449
0000d0 cc a3 59 3b 75 c6 44 3a 9e 4e af 3c f5 e7 2b bd
       0.0033209203 0.0007506379 0.021399792 -0.04196926
0000e0 a5 b8 83 bb b1 51 1b bd 26 9f b5 3c fe 1a a4 3c
       -0.004019814 -0.037919704 0.022170614 0.020032402
0000f0 04 67 2e bd 22 34 00 3b f8 84 ec 3c 90 32 00 3d
       -0.042578712 0.0019562324 0.028871998 0.03129822
000100 e8 b1 66 3d e5 e3 24 bd 6c 78 c0 bb bf 65 17 bc
       0.05632201 -0.0402564 -0.0058737304 -0.009240567
000110 4d 6a fb bc 95 59 0f bd df 35 b7 bc 3a e1 2f 3d
       -0.030690337 -0.03499754 -0.022364555 0.042939402
000120 f9 ff e1 bc 96 7c c3 bb 4e cc 94 bc 67 29 cd bc
       -0.027587878 -0.0059657795 -0.018163826 -0.025044156
000130 cf 6b 80 3d a7 0b e9 3b db b2 b1 bb c2 58 7d 3d
       0.06270563 0.007111985 -0.0054229326 0.061852224
000140 1a 12 8f bc 76 92 04 bc db 7f 38 bb a2 4b b6 bc
       -0.017464686 -0.00809156 -0.002815238 -0.022252861
000150 f2 d7 5e bc 34 3d 0b bb 3c 1c 5c 3c 91 b2 bd bc
       -0.01360129 -0.0021246197 0.013434466 -0.023156436
000160 70 e7 a1 3b 9e 03 71 3d 9a a6 c2 3b 23 bf b2 b9
       0.0049409196 0.05884134 0.0059402706 -0.00034093214
000170 1b 03 41 bd 75 d4 0d bd 06 c3 f0 3c ef f1 02 3d
       -0.047122102 -0.034626443 0.02938987 0.031969007
000180 8c 31 57 bd c3 da fb 3b 4d d1 b2 3b 01 e8 e5 bc
       -0.052537486 0.0076859905 0.0054570795 -0.02806473
000190 8c 27 0d 3d 79 26 ff b8 36 f4 4b bd a1 0d 14 3d
       0.034461543 -0.000121665136 -0.049793445 0.03614581
0001a0 f5 5b 83 3c 8b 7b 0b bd c4 07 95 bb 4a 48 f7 3c
       0.01603506 -0.034053367 -0.004548045 0.030185837
0001b0 4d c2 03 3d 78 f8 95 3c 08 7e 22 3c 22 cd a9 bb
       0.03216772 0.018306956 0.0099177435 -0.0051819244
0001c0 2f 76 1e 3c 3d 40 11 bd 2b 33 db 3b 52 21 3c bd
       0.009671732 -0.035461653 0.0066894493 -0.045930214
0001d0 d6 8e 1c 3d 2f 55 f4 bc ad 6d e9 bc e2 bf 4f 3d
       0.038222156 -0.029825775 -0.02849468 0.050720103
0001e0 14 15 10 bc 02 40 df bc b0 ce 13 bd ba a7 f7 3c
       -0.008794088 -0.027252201 -0.036085784 0.030231345
0001f0 e4 ed 32 bd 43 21 33 3d 25 94 96 3c b3 58 52 3d
       -0.0436839 0.043732893 0.018381188 0.05135412
000200 70 75 9f bc d5 ba 39 bd 46 b8 aa bb 08 f3 2a 3d
       -0.019465178 -0.045344193 -0.0052099554 0.04173568
000210 c6 bb df bc 01 14 55 bd 12 da 1b 3d e6 d8 08 3d
       -0.027311217 -0.05202103 0.038049765 0.033409975
000220 fc e5 22 3d 37 cc 05 3d b3 66 75 3b 36 9f 1e bd
       0.03977011 0.032665458 0.0037445247 -0.038726054
000230 cc 96 f8 bc 2d 97 88 bc 63 e0 e1 bc dc 85 13 bd
       -0.030345343 -0.016673649 -0.027572816 -0.03601633
000240 0a 2c 33 3d c7 0e 2b 3d 3c 67 08 bd 0f 29 4a bb
       0.04374317 0.04176214 -0.033301577 -0.0030847227
000250 82 38 53 3d cb 3b dc 3c 5a b5 13 bc 9e 74 45 bc
       0.051567562 0.02688398 -0.009015406 -0.0120517295
000260 6b 07 f5 3c 6f 62 90 bc 0f a5 15 bd f4 80 2b bc
       0.029910764 -0.017625062 -0.036534365 -0.010467757
000270 a4 d1 1e 3d 20 60 88 bc 35 35 04 bd 5d 77 7c bc
       0.038774148 -0.016647398 -0.032277305 -0.015409318
000280 1d f0 8d bc c9 8a 1d bd 2b d3 13 bb 21 b8 bb 3c
       -0.017326409 -0.038462434 -0.0022556286 0.022914948
000290 ec d2 32 3d 55 6f e0 3b 0f 91 10 3d 5f c5 83 3c
       0.043658182 0.0068492093 0.03529459 0.016085325
0002a0 39 bd 82 bc 26 f7 28 bd c3 95 69 bc 50 d0 cb 3c
       -0.015959369 -0.041251324 -0.014256897 0.024879605
0002b0 6a 36 2b 3c 47 1d 88 bc 80 f6 ba bb a1 37 65 3c
       0.010449985 -0.016615523 -0.0057056546 0.013990314
0002c0 cd 6d 59 bc 3d 56 09 3d 97 1a 26 bd 75 53 1b ba
       -0.013270807 0.03352951 -0.0405527 -0.0005925217
0002d0 d4 12 a9 3c 61 8d 14 3d ae 2e e2 3a 9f 32 cd ba
       0.02063886 0.036267642 0.0017256343 -0.0015655345
0002e0 12 56 2c 3d 0b bb 2b bd 81 ec e5 bc 0b ca 09 bd
       0.04207427 -0.041926425 -0.028066875 -0.03363995
0002f0 fe f6 4a 3d c8 00 ba 3a 67 b7 33 bd fa af c9 3b
       0.049551956 0.0014190907 -0.043876078 0.0061550112
000300 3c 91 54 bd ce 16 de 3c 59 10 1f 3d b3 41 a4 3c
       -0.05189632 0.027110483 0.03883395 0.02005086
000310 68 12 60 bc dc 45 05 bd 78 21 32 3d 67 90 63 bc
       -0.013676263 -0.032537326 0.04348895 -0.013889409
000320 2a c7 90 3c 26 99 08 bc c3 37 20 3d 01 3f 5b bc
       0.017673094 -0.008337295 0.03911568 -0.0133817205
000330 76 7d 02 3d 4d 65 2a bd ef fa 40 bd 1e 6d e7 3b
       0.03185793 -0.041600514 -0.04711431 0.0070625683
000340 c8 d4 32 3d 1d 3a 16 bd cd 84 0e 3d de 36 d1 3b
       0.043659955 -0.036676515 0.034794617 0.0063847145
000350 85 fa 3e bd bd 08 02 bd 03 7e 0f bc bf b3 9c 3b
       -0.046625633 -0.031746615 -0.008758071 0.0047821696
000360 6f 1f 8e 3c 15 f7 27 3d 26 94 27 3d fc fb 52 bd
       0.017348973 0.04100712 0.04091277 -0.051509842
000370 59 ca b8 3c 38 0c bb bc f9 39 43 bc c9 da 28 3d
       0.022557424 -0.022832975 -0.011915677 0.041224275
000380 5c 3b 9a bc 9b 5f 03 bd 6f 63 91 3c cc fa 52 bc
       -0.018827133 -0.0320736 0.017747609 -0.012877177
000390 90 2b 60 b9 02 46 50 bc cb 22 f9 3c b8 2b bc 3c
       -0.00021378533 -0.012712004 0.030412098 0.022970065
0003a0 da 7d af ba 94 da 44 bc e2 99 eb b9 c3 79 1a bd
       -0.0013388947 -0.012015004 -0.00044937345 -0.037713777
0003b0 8b 2f 6d 3c 79 66 e6 3c df 46 e3 3c c6 b6 32 bd
       0.014476667 0.028125035 0.027743755 -0.043631338
0003c0 b9 d2 1b bd 07 00 00 3d cc e5 db 3c 5a 20 88 3c
       -0.038042758 0.031250026 0.026842974 0.016616989
0003d0 cd b1 f6 3c d8 19 1f 3d 9f 69 0e bd 13 03 3c bd
       0.030114079 0.038843006 -0.034768697 -0.04590137
0003e0 26 c3 17 bb 05 b1 07 3d 1a 3a aa bc 21 c3 d5 bc
       -0.002315709 0.033127803 -0.020779658 -0.026094021
0003f0 10 09 37 bd e2 a4 8c 3c 1f 45 88 3c c4 74 9a bc
       -0.044686377 0.017168466 0.016634522 -0.018854506

Linear.bias f4 [96]
000000 dd 23 1d 3a 8d ef 4e 3a 9a 10 35 3a 29 cd 85 3a
       0.0005994419 0.0007893972 0.0006907076 0.0010208237
000010 f4 1e 9e 3a e4 fa d8 3a c1 b6 e8 3a 1e f1 e3 3a
       0.0012063668 0.0016554263 0.001775466 0.0017390584
000020 b8 d3 02 3b c2 12 10 3b 86 41 1b 3b 44 c7 23 3b
       0.001996262 0.0021983837 0.0023690178 0.0024990598
000030 d5 5e 25 3b 22 7f 39 3b 1b 5a 36 3b 1d 6d 4c 3b
       0.0025233526 0.0028304537 0.0027824703 0.0031192966
000040 24 e7 4a 3b df 31 51 3b 7d 8c 5e 3b 97 e9 64 3b
       0.0030960524 0.0031920595 0.003395825 0.003492927
000050 1c 22 7a 3b c6 50 83 3b 90 5d 86 3b d5 d7 8f 3b
       0.0038167303 0.0040074317 0.004100509 0.004389743
000060 93 57 98 3b df e1 9c 3b c9 9c a6 3b 4c 29 ae 3b
       0.0046491115 0.004787668 0.005084608 0.0053149816
000070 ac de b7 3b ae b9 b5 3b db 01 bd 3b 42 cd c3 3b
       0.0056112614 0.0055458164 0.0057680435 0.0059753964
000080 fb 57 ce 3b b2 6d d4 3b fe 66 dd 3b 8f a4 e9 3b
       0.006297109 0.0064828033 0.0067566624 0.0071302126
000090 04 21 e9 3b 5d 82 f3 3b b4 29 01 3c d9 24 05 3c
       0.0071145315 0.007431312 0.007883478 0.008126461
0000a0 33 b6 04 3c 96 c4 09 3c d1 ce 11 3c 2e 4d 0f 3c
       0.00810008 0.008408686 0.0088994065 0.008746428
0000b0 62 c1 11 3c 52 95 15 3c ba 15 1a 3c 08 5b 1c 3c
       0.008896204 0.009129839 0.009404594 0.009543188
0000c0 c2 0e 20 3c 01 ea 21 3c f6 9c 27 3c 79 d1 2c 3c
       0.009769144 0.009882451 0.0102302935 0.010547989
0000d0 79 6b 30 3c 8c 60 32 3c 5d 21 36 3c d1 33 3c 3c
       0.010767811 0.010887276 0.011116353 0.011486963
0000e0 6f a1 3e 3c 3a 0f 3d 3c 41 20 40 3c 0a 9e 44 3c
       0.011635168 0.011539275 0.01172644 0.01200057
0000f0 e8 2f 47 3c 1f dc 4a 3c e8 d7 4d 3c f8 70 50 3c
       0.012157418 0.0123815825 0.012563683 0.012722246
000100 ef 1a 54 3c a6 5b 54 3c e9 b4 5b 3c 5a ab 5a 3c
       0.012945875 0.012961304 0.013409832 0.013346517
000110 2b 1a 5e 3c cd 1b 5d 3c 46 f5 60 3c 20 14 63 3c
       0.013556044 0.013495398 0.013730353 0.013859779
000120 9d 86 65 3c 36 e2 69 3c 98 fa 69 3c 0f 2f 6f 3c
       0.014009145 0.014275124 0.014280938 0.014598622
000130 5b dd 71 3c 24 cd 71 3c 03 ff 71 3c 39 23 76 3c
       0.014762248 0.014758382 0.014770272 0.015023046
000140 6d ea 76 3c 58 5e 78 3c cd f6 77 3c 80 9d 7b 3c
       0.01507054 0.015159212 0.0151345255 0.015357375
000150 cb b8 7e 3c 89 7d 7e 3c 23 bb 80 3c 8d 85 81 3c
       0.015546988 0.01553286 0.015714234 0.015810752
000160 fe be 83 3c 39 e0 83 3c b7 dc 81 3c d5 84 82 3c
       0.016082283 0.016098129 0.015852315 0.01593248
000170 95 04 83 3c 9c 45 84 3c ba de 83 3c 01 d9 85 3c
       0.015993396 0.016146474 0.016097415 0.016338827
